dqn_model.pt (torch, 75420 bytes, 6 tensors)

net.0.weight f4 [128, 9]
0	0xbe324412	-0.1740878
1	0x3eb66ecb	0.35631403
2	0x3f095808	0.5364995
3	0xbdecf464	-0.11570051
4	0x3e5f34f3	0.21797542
5	0xbdcfc698	-0.101453006
6	0xbdcb78d9	-0.09935159
7	0x3d35b9af	0.044366535
8	0x3f111a72	0.5668098
9	0xc0164866	-2.3481688
10	0xbf46cbfd	-0.7765501
11	0xbed1191e	-0.40839475
12	0xbe531dd6	-0.2061685
13	0x3e058f13	0.1304286
14	0xbe4e5754	-0.201505
15	0xbf01d787	-0.50719494
16	0x3edf6824	0.4363414
17	0x3cd95634	0.026530363
18	0x3d1a478b	0.037665885
19	0xbe5e56d6	-0.21712813
20	0xbe879954	-0.26484168
21	0x3e60f883	0.219698
22	0xbe72be63	-0.2370544
23	0xbea0d4d3	-0.31412372
24	0xbe183446	-0.1486369
25	0xbd0a72e0	-0.03380096
26	0xbe8ae02a	-0.2712415
27	0xbf797679	-0.974464
28	0x3fbcb9a7	1.4744157
29	0x3f824223	1.0176433
30	0xbdfd6841	-0.123734005
31	0x3e90c6b6	0.28276604
32	0x3ecfe648	0.40605378
33	0xbec47ec5	-0.38377967
34	0xbea1781d	-0.31536952
35	0x3e642ab0	0.22281909
36	0x3e6e855d	0.23293062
37	0x3e8ba478	0.27273917
38	0xbe6f1890	-0.23349214
39	0xbd8f2346	-0.0698915
40	0xbcf18296	-0.029481214
41	0xbe50796d	-0.2035882
42	0x3cccbfa9	0.024993734
43	0xbc53a1a9	-0.012916961
44	0x3d89df0e	0.067319974
45	0xbe2add82	-0.16686061
46	0x3ecfde00	0.4059906
47	0xbd4fd3d4	-0.050739124
48	0x3d9a4499	0.07532615
49	0xbe8541ae	-0.26026672
50	0xbd396f0c	-0.04527192
51	0xbc27e534	-0.010247517
52	0xbf323810	-0.69616795
53	0x3e8d1a65	0.275592
54	0x3e5af8b3	0.21383934
55	0xbe37322e	-0.17890236
56	0xbe0feb86	-0.14054689
57	0x3e7ef898	0.24899518
58	0x3c4b6456	0.012414059
59	0xbe1a4413	-0.15065031
60	0xbe5552ce	-0.20832369
61	0xbe380740	-0.17971516
62	0xbe0d8f9e	-0.13824317
63	0xbee81854	-0.4533106
64	0xbac5b90b	-0.0015085054
65	0x3d1f3bcb	0.038875382
66	0x3e83198f	0.25605437
67	0x3e79cf13	0.24395399
68	0xbea88670	-0.32915068
69	0x3e27acb4	0.16374475
70	0xbed2c9cd	-0.41169587
71	0x3cc1a69b	0.023639014
72	0x3f1ed269	0.6203981
73	0xbf001342	-0.50029385
74	0xbf4ac7d2	-0.7921115
75	0xbe0e1a78	-0.13877285
76	0xbe5844f8	-0.2112006
77	0x3daf7688	0.0856753
78	0xbcab1e0b	-0.020888349
79	0xbef01783	-0.46892938
80	0xbe876572	-0.26444584
81	0x3f2641b5	0.6494401
82	0x3fdc00d5	1.7187754
83	0x4039f3fb	2.9055164
84	0xbf95a8e7	-1.169217
85	0xbe37a14e	-0.17932627
86	0x3e36609d	0.17810293
87	0x3e42b5bc	0.19014639
88	0xbe96a9d3	-0.2942644
89	0xbea8c642	-0.3296376
90	0xbf69407b	-0.91114014
91	0xc024b6ad	-2.5736496
92	0xbfdcd79e	-1.7253301
93	0x3f79aed8	0.97532415
94	0x3ea51a7f	0.32246777
95	0xbe96c2df	-0.2944555
96	0x3d640223	0.0556661
97	0xbe72ab5d	-0.23698182
98	0x3f484f18	0.7824569
99	0xbeaf9c51	-0.34298947
100	0xbfa32cde	-1.2748067
101	0xbf235248	-0.63797426
102	0xbeb3e401	-0.3513489
103	0xbe6d3118	-0.23163259
104	0x3e2d8f53	0.16949205
105	0xbe548a3e	-0.2075586
106	0x3ea1e0af	0.31616732
107	0xbf04a9f9	-0.5182186
108	0x3dbfa430	0.09357488
109	0x3f1b91b9	0.6076923
110	0x3f1d634b	0.61479634
111	0xbe6eeab2	-0.23331717
112	0x3ca02656	0.01954953
113	0xbf09b556	-0.5379232
114	0xbedc7715	-0.43059602
115	0x3e30d525	0.17268808
116	0xbe5b493a	-0.21414652
117	0xbe14ba48	-0.14524186
118	0xbf52b5b7	-0.82308525
119	0xbf68b5a5	-0.9090217
120	0x3b943145	0.004522475
121	0xbea0d862	-0.31415087
122	0x3e71085c	0.23538345
123	0xbf1f0493	-0.62116355
124	0xbe07c76c	-0.13259667
125	0xbead61ea	-0.33863765
126	0xbe591383	-0.2119885
127	0x400d2a84	2.20572
128	0x3fc3de12	1.5302145
129	0x3e13831a	0.1440548
130	0xba751000	-0.00093483925
131	0x3d9f24d8	0.07770699
132	0xbe905bbe	-0.28194994
133	0xbe967a1c	-0.29390037
134	0x3f6b6d94	0.9196408
135	0x3d8b23ca	0.067939356
136	0x3e150130	0.14551234
137	0xbe33064d	-0.17482872
138	0xbec2f7d7	-0.38079712
139	0x3e9636d7	0.29338714
140	0xbe98166f	-0.29704615
141	0xbe716e3d	-0.23577209
142	0x3dbdabe8	0.09261304
143	0x3e1edc63	0.15513758
144	0xbfeb2b61	-1.8372613
145	0xbf6f665f	-0.9351558
146	0xbe087efd	-0.13329692
147	0x3e2a8503	0.16652302
148	0xbe212626	-0.15737209
149	0xbdb426e3	-0.087964796
150	0x3f0c677b	0.548454
151	0xbf601736	-0.8753542
152	0xbd0fb45b	-0.03508411
153	0x3f8301ff	1.0234984
154	0xc01d650b	-2.4592922
155	0xbf806797	-1.0031613
156	0xbf299074	-0.6623604
157	0xbe2ac886	-0.16678056
158	0x3d652ce2	0.055951007
159	0xbe26806b	-0.16259925
160	0x3e364c30	0.178025
161	0xbf161389	-0.5862356
162	0x3f9f0ed4	1.24264
163	0x3fd1cb1f	1.6390113
164	0xbf0c96ab	-0.549174
165	0xbe38ad92	-0.18034962
166	0x3d860cfb	0.065454446
167	0xbe2e9b61	-0.1705146
168	0xbe65b6df	-0.22433041
169	0xbeb0c13b	-0.34522423
170	0xbe2d7384	-0.16938597
171	0xbe99a08d	-0.30005303
172	0xbe8d0e7e	-0.2755012
173	0xbf05ebca	-0.5231291
174	0xbebc244c	-0.36746442
175	0x3e436d8e	0.1908476
176	0x3e67513f	0.22589587
177	0xbf4b823e	-0.7949561
178	0xbeedb0eb	-0.4642404
179	0xbe68bc9f	-0.22728203
180	0x40837308	4.107792
181	0xbfdefe46	-1.7421348
182	0xbf9b8192	-1.2148917
183	0x3e2849bf	0.16434382
184	0xbd6daac0	-0.058024168
185	0x3e7b99e6	0.24570426
186	0xbe78f9ac	-0.24313992
187	0xbde3bf9f	-0.11120533
188	0xbe8bfd27	-0.27341577
189	0xbfb13cc9	-1.3846675
190	0xbf87f13d	-1.0620495
191	0xbfab257e	-1.3370817
192	0xbe7300b6	-0.2373074
193	0xbdd3b620	-0.10337472
194	0x3e928b3f	0.2862186
195	0xbead09fa	-0.33796674
196	0xbe9e3a78	-0.30903983
197	0xbf1a5ed8	-0.6030097
198	0xc0155422	-2.33326
199	0xbf6f67f5	-0.93518
200	0xbeb65b24	-0.3561641
201	0x3e17bd27	0.1481825
202	0x3d19a540	0.03751111
203	0xbdc323b5	-0.09528295
204	0x3ddc3d5b	0.1075389
205	0x3f036e1a	0.51339877
206	0x3ddaaa08	0.10676962
207	0x3f67034a	0.90239394
208	0x3e938a72	0.28816563
209	0xbe1cf086	-0.15326127
210	0xbedd609e	-0.43237776
211	0x3e9f3933	0.31098327
212	0x3da3ebca	0.080039576
213	0xbf186df0	-0.5954275
214	0x3eceacac	0.40366113
215	0x3d5b051d	0.053471673
216	0xbf8d56b9	-1.1042091
217	0xbd43ba19	-0.0477849
218	0xc0042ece	-2.0653567
219	0xbdcd2632	-0.10017051
220	0x3dd9860b	0.1062127
221	0xbe4eefc8	-0.20208657
222	0x3edd0e66	0.43175048
223	0xbf1b0b77	-0.6056437
224	0xbb3d754e	-0.002890903
225	0xbfab6282	-1.3389437
226	0xbee5e1d8	-0.44898868
227	0xbf79680d	-0.97424394
228	0xbf152bf5	-0.582702
229	0xbd4da0d6	-0.050202213
230	0x3e8081ec	0.25099123
231	0xbe021baf	-0.12705873
232	0xbe436207	-0.19080363
233	0xbf3c00fc	-0.73439
234	0xbffcdcaa	-1.9754841
235	0x3e356f65	0.17718275
236	0x3f365175	0.71218044
237	0xbd4ec1ec	-0.050477907
238	0x3df5686b	0.11982807
239	0xbe7b77ec	-0.24557465
240	0x3f3f8e22	0.7482625
241	0x3e42e4dc	0.19032615
242	0xbc376381	-0.011193157
243	0xc0065864	-2.099145
244	0xc005dd08	-2.0916157
245	0xbe0c6362	-0.13709787
246	0xbe894194	-0.26807845
247	0x3e4841f8	0.19556415
248	0xbd07438a	-0.033023395
249	0x3cc87182	0.024468187
250	0x3dbf1891	0.093308575
251	0xbe2f6c76	-0.17131218
252	0x3e57976e	0.2105386
253	0xbf1b1417	-0.6057753
254	0xbf846b60	-1.0345268
255	0xbc8b1117	-0.016975923

net.0.bias f4 [128]
0	0x3f0a5dd1	0.540494
1	0xbf4ff585	-0.8123401
2	0x3c9d2a40	0.019185185
3	0x3e6c4d6f	0.23076414
4	0x3c42a894	0.0118810125
5	0x3eba51bd	0.36390486
6	0x3e5e2463	0.21693568
7	0xbd8c5c07	-0.0685349
8	0xbd9cc5c8	-0.07654911
9	0xbe943eea	-0.2895425
10	0x3e925977	0.2858388
11	0xbed3efb8	-0.41393828
12	0xbe0d739d	-0.13813634
13	0xbf5783ee	-0.84185684
14	0x3f067995	0.5252927
15	0xbb9ee2a0	-0.004848793
16	0x3e5d2e6b	0.21599738
17	0xbf064398	-0.5244689
18	0x3ecfd5f0	0.4059291
19	0xbf039aca	-0.51408064
20	0x3e7a0c81	0.24418832
21	0xbe3d51f6	-0.18488297
22	0xbe91ac1b	-0.2845162
23	0x3eeb91e7	0.46009752
24	0x3e3e898e	0.1860716
25	0xbdfe4238	-0.12414974
26	0xbe136dc2	-0.14397338
27	0xbf2427da	-0.6412331
28	0x3df66e3b	0.120327435
29	0x3eb86876	0.36017197
30	0x3b96acb0	0.0045982227
31	0xbf26d060	-0.65161705
32	0xbbad851b	-0.0052954084
33	0x3f8bb85a	1.0915635
34	0xbe9fa410	-0.31179857
35	0x3ea38d32	0.3194366
36	0xbe64d4b3	-0.22346763
37	0x3c50a900	0.012735605
38	0xbe83aeeb	-0.2571939
39	0x3d1e908d	0.038712073
40	0xbd8fe7d8	-0.070266426
41	0x3d82aacf	0.063802354
42	0xbe949789	-0.29021862
43	0xbe54b9ad	-0.20773955
44	0xbe64de47	-0.22350417
45	0xbe6145d8	-0.219993
46	0xbef1856e	-0.4717211
47	0x3e9726d0	0.295218
48	0x3f2ebb79	0.6825481
49	0x3eb12166	0.34595793
50	0xbc228c84	-0.009921197
51	0xbd66869a	-0.05628071
52	0xbea03fa1	-0.31298545
53	0x3efff4a1	0.49991325
54	0x3f2b9553	0.67024726
55	0x3dc490e2	0.09597947
56	0xbe660b60	-0.22465277
57	0xbf0a6a7b	-0.54068726
58	0x3e0e15a3	0.13875441
59	0xbe6d2cf3	-0.23161678
60	0xbe9a83d3	-0.301787
61	0x3ea5244d	0.32254258
62	0x3e6d8078	0.23193538
63	0x3e32e452	0.1746991
64	0x3e757005	0.23968513
65	0xbea29ff2	-0.31762654
66	0xbefe0a4b	-0.49617228
67	0xbe1c0bf2	-0.15238932
68	0x3e02b516	0.12764391
69	0xbf285158	-0.6574912
70	0xbecd708b	-0.40124926
71	0xbf01911d	-0.5061205
72	0x3ee9388d	0.45550957
73	0xbefa0839	-0.48834398
74	0x3f28b4d7	0.6590094
75	0x3e63011b	0.2216839
76	0x3f8ffc27	1.1248826
77	0x3ec58ab0	0.38582373
78	0x3f888d5f	1.0668143
79	0xbed1b2db	-0.40956768
80	0xbd9253d0	-0.07144892
81	0xbe913303	-0.2835923
82	0xbe958fd1	-0.29211286
83	0x3ec87c04	0.39157116
84	0x3f161af4	0.5863488
85	0x3ea80b24	0.32821
86	0xbf00be3d	-0.5029028
87	0xbd89af89	-0.06722934
88	0xbdd9b4d2	-0.10630192
89	0xbf366265	-0.7124389
90	0xbf1aee48	-0.6051984
91	0x3e35bd3f	0.17747973
92	0xbe8d12de	-0.27553457
93	0x3d5b2b6b	0.053508203
94	0x3e0621f7	0.13098894
95	0xbf485a29	-0.78262573
96	0x3cdddf3f	0.027083991
97	0xbe91b004	-0.28454602
98	0xbebfad3d	-0.37436858
99	0xbeb9140e	-0.36148113
100	0xbf0eaf92	-0.5573665
101	0xbf2d01bc	-0.6758077
102	0xbf043755	-0.5164693
103	0xbed45157	-0.41468307
104	0xbeafbe9d	-0.34325114
105	0x3e2e2af4	0.17008573
106	0x3ec7c3ea	0.39016658
107	0x3e0b4a83	0.13602643
108	0x3ec25384	0.37954342
109	0x3de58b18	0.11208171
110	0xbf2555fb	-0.6458432
111	0xbebc5c47	-0.36789152
112	0x3f090b5a	0.53532946
113	0x3e213e80	0.15746498
114	0x3e38ffbe	0.18066308
115	0x3ee4b9fd	0.44673148
116	0xbefb5893	-0.49091014
117	0x3e152a19	0.1456684
118	0xbf2f6303	-0.68510455
119	0x3dd55240	0.104160786
120	0xbe2cccf8	-0.16875064
121	0xbec013f2	-0.37515217
122	0x3e721e1b	0.23644297
123	0xbeffb712	-0.4994436
124	0xbebe0651	-0.37114194
125	0x3e2a57c8	0.16635048
126	0x3f2c34fc	0.6726835
127	0xbf2c9dd2	-0.67428315

net.2.weight f4 [128, 128]
0	0xbdabde8b	-0.08392056
1	0xbd613c58	-0.05498919
2	0xbd1584f6	-0.036503755
3	0xbe99eaeb	-0.3006204
4	0xbce89040	-0.028389096
5	0xb8d78e71	-0.00010278531
6	0x3d8eb440	0.06967974
7	0xbf0066d3	-0.501569
8	0x3cb3fe5c	0.021971874
9	0xbea6ada2	-0.32554346
10	0x3d4bad37	0.049725737
11	0xbe8cd356	-0.27504987
12	0x3c747774	0.014921058
13	0xbe12e12f	-0.14343713
14	0xbd8bb559	-0.06821699
15	0x3dba596d	0.09099088
16	0xbdd277d6	-0.10276763
17	0xbd7ccc8c	-0.06171851
18	0x3e30e9b6	0.17276654
19	0xbe818e9f	-0.25304124
20	0xbe45af50	-0.19305158
21	0xbe43d428	-0.191239
22	0xbe93906c	-0.28821123
23	0xbc4cf88c	-0.01251043
24	0x3d8bc038	0.06823772
25	0xbf1c5bf8	-0.61077833
26	0xbca1ac6c	-0.019735537
27	0xbe02a7b4	-0.12759286
28	0x3d981065	0.07425002
29	0x3c0b04ce	0.008485032
30	0xbe3c1855	-0.18368657
31	0xbef7511e	-0.48304075
32	0xbd0e043f	-0.03467202
33	0x3d1935f8	0.037404984
34	0xbe4d64bf	-0.20057963
35	0xbdb3f3bb	-0.08786722
36	0xbe9295e7	-0.2862999
37	0x3c229f7c	0.009925719
38	0x3ec55c5a	0.3854702
39	0x3df5e696	0.120068714
40	0xbea26c4f	-0.31723258
41	0xbea8e25c	-0.32985198
42	0xbba107bf	-0.0049142535
43	0xbcb016e8	-0.021495298
44	0xbc634745	-0.013871972
45	0xbe0ac19f	-0.13550423
46	0xbd689aba	-0.056788184
47	0x3d774542	0.060368784
48	0xbedc4217	-0.43019173
49	0x3c22381f	0.009901076
50	0xbcd7f138	-0.02636014
51	0xbea2eec7	-0.31822798
52	0x3d8e3053	0.06942811
53	0xbd2e2a0a	-0.04252056
54	0xbec5701c	-0.38562095
55	0x3d983b0d	0.07433138
56	0xbc3eff6b	-0.011657576
57	0xbdb41273	-0.087925814
58	0x3e96c5dd	0.29447833
59	0xbdb32ae2	-0.087484136
60	0xbd6cd9ed	-0.057825018
61	0x3de8f2e4	0.11374453
62	0xbcc482f6	-0.023988228
63	0x3e29afe5	0.16571005
64	0xbe7b40bb	-0.24536411
65	0x3d97c3f0	0.07410419
66	0xbdb80b1c	-0.08986494
67	0xbdcfefc0	-0.101531506
68	0xbd88855e	-0.06666063
69	0xbea03b8a	-0.31295425
70	0xbe99c7c9	-0.30035236
71	0xbe853f38	-0.26024795
72	0x3e384358	0.1799444
73	0xbea9d42c	-0.33169687
74	0xbd97d577	-0.07413762
75	0x3d80378b	0.06260594
76	0x3e1b8d31	0.15190579
77	0xbf3c7915	-0.73622257
78	0xbe508973	-0.20364933
79	0xbe387cb8	-0.18016326
80	0x3e7149a2	0.23563245
81	0xbdbc4b18	-0.091940105
82	0xbd5efdf6	-0.054441415
83	0x3ec178f6	0.37787598
84	0xb8bb31ea	-8.926152e-05
85	0x3db31a41	0.08745242
86	0xbcff2f5e	-0.031150516
87	0xbe96d74a	-0.29461128
88	0x3d4bed45	0.049786825
89	0xbddb4673	-0.107067965
90	0xbe1c3978	-0.15256298
91	0x3e69280f	0.22769187
92	0xbb2db701	-0.0026506784
93	0xbe295d26	-0.1653944
94	0xbd489f31	-0.04897994
95	0xbe5eb399	-0.21748199
96	0xbc0f80c4	-0.008758727
97	0x3c555a75	0.013022055
98	0xbad72990	-0.0016415585
99	0xbeab08b2	-0.33405071
100	0xbc94977e	-0.018138643
101	0xbcd34ebc	-0.02579438
102	0xbdec5e5e	-0.115414366
103	0xbeade263	-0.33961782
104	0xbecbfc72	-0.39841038
105	0x3d386c8a	0.045025386
106	0xbe03d43f	-0.12873934
107	0xbef0f707	-0.47063467
108	0xbed3c089	-0.4135783
109	0x3d923e5e	0.07140802
110	0xbe47de16	-0.19518313
111	0x3d852c5c	0.065026015
112	0x3ec13133	0.3773285
113	0x3d990988	0.07472521
114	0x3dae8915	0.0852224
115	0xbd964e66	-0.07339172
116	0xbe766fd3	-0.24066095
117	0xbe81b52f	-0.25333545
118	0xbeaafeb2	-0.33397442
119	0xbe53be3b	-0.20678036
120	0xbba71e86	-0.005100074
121	0xbd889e0b	-0.06670769
122	0xbe4310bc	-0.19049352
123	0x3dde23f2	0.108467
124	0xbd5b1d4c	-0.053494737
125	0xbeaa13b5	-0.3321816
126	0xbeaecc44	-0.34140217
127	0xbe545ee7	-0.20739327
128	0xbec44f2f	-0.38341662
129	0xbed5f935	-0.41791692
130	0xbcaa8caf	-0.020819036
131	0xbe99ef97	-0.30065605
132	0xbd84b027	-0.06478911
133	0x3dfc96fc	0.123334855
134	0x3d984717	0.07435434
135	0xbeb51266	-0.353656
136	0x3e9c1ae5	0.3048927
137	0x3e1917cb	0.14950483
138	0xbe6e0480	-0.23243904
139	0xbdc3de2d	-0.09563861
140	0xbe99c88a	-0.30035812
141	0xbde30dce	-0.110866174
142	0xbf1270be	-0.5720328
143	0xbe0cf9b6	-0.13767132
144	0x3e163994	0.14670402
145	0xbef45d35	-0.4772736
146	0x3efb8b70	0.4912982
147	0x3af5925c	0.0018735635
148	0xbf8ffb70	-1.1248608
149	0xbedd731f	-0.43251893
150	0xbe6c7747	-0.23092376
151	0xbf32a00e	-0.69775474
152	0x3ec7642a	0.38943607
153	0xbe4cb9fd	-0.19992824
154	0x3e32751f	0.1742749
155	0xbe26df4f	-0.16296123
156	0x3e79f8c0	0.24411297
157	0x3e727db9	0.23680772
158	0xbf060de8	-0.5236497
159	0xbf8460d2	-1.0342047
160	0xbde29fa5	-0.11065606
161	0x3d83c09a	0.0643322
162	0x3c8c6fe7	0.017143203
163	0xbf4373b2	-0.7634841
164	0xbd9bd73c	-0.07609412
165	0x3d514148	0.051087648
166	0xbdb5f809	-0.088851996
167	0xbe72b2a4	-0.23700958
168	0xbe9933fa	-0.29922467
169	0xbe8066c6	-0.2507841
170	0x3d8bd32a	0.06827386
171	0x3cad7b8b	0.021177074
172	0xbed59e9f	-0.4172258
173	0xbb147724	-0.002265402
174	0x3f0067ab	0.50158185
175	0xbda52df2	-0.08065404
176	0xbf47a625	-0.7798789
177	0xbf041908	-0.51600695
178	0x3d7713e0	0.06032169
179	0x3dbc0bfc	0.09181973
180	0xbe7d5821	-0.2474065
181	0x3e0157a8	0.12631094
182	0x3f106dec	0.5641773
183	0x3ebac225	0.36476246
184	0xbbffc21c	-0.007805122
185	0xbeb2c2d4	-0.34914267
186	0xbddff542	-0.10935451
187	0xbd97c52b	-0.07410654
188	0xbe6bb6c8	-0.23018944
189	0xbdf1e3d8	-0.11811036
190	0x3e6a72f5	0.22895415
191	0xbeabb366	-0.33535308
192	0xbf04a464	-0.5181334
193	0xbd9d9619	-0.076946445
194	0x3e60caf8	0.21952426
195	0xbdb053b4	-0.08609715
196	0x3c1207f2	0.008913027
197	0xbdd221b0	-0.10260332
198	0x3ee03b28	0.43795133
199	0x3d0e2cb8	0.034710616
200	0x3d169130	0.036759555
201	0x3e04fea7	0.12987767
202	0xbe8a6b96	-0.27035207
203	0x3d637f75	0.055541474
204	0xbfc248e3	-1.5178493
205	0xbe8bfa53	-0.2733942
206	0x3f835c72	1.0262587
207	0xbda85bb3	-0.08220615
208	0xbe19337b	-0.14961044
209	0xbf20c9e0	-0.62808037
210	0x3e8e9375	0.27846876
211	0xbdcde6e6	-0.10053806
212	0x3e7c373b	0.24630444
213	0xbd1a38ad	-0.037651706
214	0x3e8495da	0.25895578
215	0x3e0c341d	0.13691755
216	0x3e89b4d5	0.26895776
217	0x3eb74c53	0.35800418
218	0x3ecdfa66	0.402301
219	0x3d2026a5	0.039099354
220	0x3d9cb73a	0.07652135
221	0xbeb66396	-0.35622853
222	0x3e8c3e0f	0.27391097
223	0x3eb03888	0.3441813
224	0xbecbc0e5	-0.39795604
225	0x3dad6a82	0.084675804
226	0xbba9f1f9	-0.005186316
227	0x3e22d02d	0.15899725
228	0x3db2ea2d	0.08736072
229	0x3d906dd3	0.07052197
230	0xbdde76fc	-0.10862538
231	0xb9312128	-0.00016892387
232	0xbf041924	-0.5160086
233	0xbddf492c	-0.10902628
234	0x3e65fb8a	0.22459236
235	0xbf228113	-0.634782
236	0x3e9fc87c	0.31207645
237	0xbcc6475e	-0.024203952
238	0x3f182d70	0.5944433
239	0x3d19354e	0.03740435
240	0x3e9d2f7c	0.3070029
241	0x3da9a522	0.0828345
242	0xbd2402b8	-0.040041655
243	0xbe7324a1	-0.23744442
244	0x3e04e6b9	0.12978639
245	0x3e4e909c	0.20172352
246	0x3ea77635	0.32707372
247	0xbeede7a5	-0.46465793
248	0xbea85ab8	-0.32881713
249	0xbe0fce9e	-0.14043662
250	0xbf5cbfd9	-0.86230236
251	0x3d438acf	0.0477398
252	0xbe270412	-0.16310146
253	0x3ebad8a7	0.36493418
254	0xbdb21a3a	-0.086964086
255	0xbc3a845e	-0.011384098

net.2.bias f4 [128]
0	0x3d681fb7	0.05667087
1	0xbdc6646a	-0.09687121
2	0xbebc0e05	-0.36729446
3	0xbce19a95	-0.02753953
4	0xbccbeee6	-0.02489419
5	0xbde8441b	-0.11341115
6	0xbe054436	-0.13014302
7	0x3de536ee	0.11192118
8	0xbe11a87d	-0.1422443
9	0x3d7652c0	0.06013751
10	0xbd19f925	-0.03759112
11	0xbd7ffc91	-0.062496725
12	0xbdd924bb	-0.10602709
13	0xbd7d3c26	-0.06182494
14	0xbdf78db9	-0.12087578
15	0x3d015c62	0.031582244
16	0xbdb09160	-0.08621478
17	0xbd428242	-0.047487505
18	0xbc3c3bfe	-0.011488913
19	0x3caad51a	0.020853568
20	0xbcb0ebf5	-0.021596888
21	0xbc27f229	-0.010250607
22	0xbeba44b6	-0.36380547
23	0xbdaa2968	-0.08308679
24	0xbe3b6fdc	-0.1830439
25	0x3ccd0234	0.025025465
26	0xbd1789a3	-0.036996495
27	0x3d071cc4	0.032986417
28	0xbdd9b4d1	-0.10630191
29	0xbe1b4e24	-0.15166527
30	0xbe91ddb5	-0.28489462
31	0xbcda7e54	-0.026671566
32	0xbd8ba9dc	-0.068195075
33	0x3986b0cc	0.00025690196
34	0xbd546123	-0.05185045
35	0xbc6afd77	-0.014342657
36	0xbe4510bd	-0.19244666
37	0x3c0e4b87	0.008684999
38	0x3c3353cd	0.010945273
39	0xbe5754bd	-0.21028419
40	0xbe03a5b4	-0.1285618
41	0xbda4b776	-0.08042805
42	0xbdd45e16	-0.10369508
43	0xbe9aa47f	-0.30203626
44	0x3e428904	0.1899758
45	0xbe192a01	-0.1495743
46	0xbd8f000a	-0.06982429
47	0xbdcc5481	-0.09977055
48	0x3c96c1d4	0.018402971
49	0x3d07b1c4	0.033128515
50	0x3e1ec72f	0.1550567
51	0xbe817948	-0.25287843
52	0xbc0013d5	-0.007817228
53	0xbd132ad4	-0.035929516
54	0xbe634b25	-0.22196634
55	0xbeb9f545	-0.36319938
56	0xbe28fd73	-0.16502933
57	0x3d659916	0.056054197
58	0xbdc3fc08	-0.095695555
59	0xbe060a25	-0.13089807
60	0xbe9f3002	-0.31091315
61	0xbe19fb28	-0.15037215
62	0xbd4b93d2	-0.04970152
63	0xbda8a286	-0.08234124
64	0xbae49691	-0.0017439892
65	0xbe4fb565	-0.2028404
66	0x3da1541d	0.078773715
67	0x3d533def	0.051572736
68	0xbe0b0d65	-0.13579328
69	0xbd0fae4c	-0.03507833
70	0xbe100477	-0.14064203
71	0xbcaa401f	-0.020782528
72	0x3bf25ad6	0.0073960824
73	0xbe073483	-0.13203625
74	0xbcb8daf3	-0.02256534
75	0x3f2278f1	0.6346579
76	0xbda695a0	-0.081340075
77	0xbe8d50fc	-0.2760085
78	0xbd5d193c	-0.053979144
79	0xbe3bcff3	-0.18341045
80	0xbd8ed832	-0.0697483
81	0xbd6294ee	-0.05531781
82	0xbdcbc816	-0.09950273
83	0x3d32d65f	0.04366147
84	0xbdf9031b	-0.121587954
85	0xbd97a194	-0.074038655
86	0x3ca53260	0.020165622
87	0xbdbc6d8c	-0.09200582
88	0xbebbde87	-0.36693212
89	0xbd93ea4a	-0.072224215
90	0xbd277fbc	-0.0408933
91	0x3db818fe	0.08989142
92	0xbeb95c34	-0.36203158
93	0xbda94636	-0.08265345
94	0xbeb8f9e6	-0.36128157
95	0xbe698d8a	-0.22807899
96	0xbdc3845d	-0.09546731
97	0xbde48a1e	-0.11159156
98	0x3e202b83	0.15641598
99	0xbdb0c069	-0.08630449
100	0xbdd9c942	-0.1063409
101	0xbe3d9b3f	-0.18516253
102	0x3ede71a4	0.43446076
103	0xbe04c3a7	-0.1296526
104	0x3e49375a	0.19650021
105	0xbd99db4d	-0.075125314
106	0xbe541d96	-0.20714411
107	0x3e4ea21b	0.20179026
108	0xbdacf8c6	-0.08445887
109	0xbe56e5ed	-0.20986147
110	0x3d0750d2	0.03303606
111	0xbd0141b6	-0.031556807
112	0xbdc11639	-0.09428067
113	0xbe1ca260	-0.15296316
114	0xbebae882	-0.36505514
115	0xbe203992	-0.15646961
116	0xbeaba7eb	-0.3352655
117	0x3beb839f	0.0071873213
118	0xbf0d5d63	-0.5522062
119	0xbe8287fe	-0.2549438
120	0xbca192f3	-0.019723391
121	0xbd765568	-0.060140043
122	0xbebf1205	-0.37318435
123	0xbdb874ec	-0.09006676
124	0x3c82a831	0.01594934
125	0x3e20f126	0.15716991
126	0xbdf0562b	-0.11735185
127	0xbd97b738	-0.07407993

net.4.weight f4 [3, 128]
0	0x3b8082b4	0.003921831
1	0xba1677e7	-0.0005739913
2	0x3bcf32be	0.0063231876
3	0x3dd6f55e	0.10496019
4	0x3d1afe65	0.037840266
5	0x3ca2b19e	0.019860085
6	0x3d55bee1	0.05218399
7	0xb947d2cc	-0.00019056647
8	0x3c7097a0	0.014684588
9	0xb85c514d	-5.2527805e-05
10	0x3d83e244	0.06439641
11	0x3d90fae9	0.07079107
12	0x3bc0d730	0.0058850273
13	0xba08d0e2	-0.0005219114
14	0x388c0131	6.675942e-05
15	0x3d53dc8e	0.05172401
16	0xbcecafb4	-0.028892376
17	0x3c9fbc45	0.019498954
18	0xbc54e0e8	-0.012993075
19	0x3c48de4a	0.012260029
20	0xbd6b6f57	-0.05747923
21	0x3ce85faa	0.028365929
22	0x3c1a3b37	0.009413532
23	0xbccee239	-0.025254356
24	0xba412914	-0.0007368487
25	0xbd0fde2a	-0.03512398
26	0x3cd40bdc	0.025884561
27	0xbcc7d45b	-0.024393251
28	0xbd97e453	-0.07416596
29	0x3d3b3cf0	0.04571241
30	0x3a4c706d	0.0007798735
31	0x3b22a519	0.0024817644
32	0xbc906485	-0.017626056
33	0x3bcad19a	0.0061895372
34	0x3af71b6b	0.0018852776
35	0x3b326ad4	0.002722432
36	0x3c3600a6	0.011108553
37	0xbd040f2a	-0.032241024
38	0x3d2fb5b1	0.042897884
39	0xb995fd46	-0.00028608198
40	0x3d949f94	0.072569996
41	0x3d9fcdd6	0.07802932
42	0xb9c7ebcd	-0.00038131923
43	0xba48d739	-0.0007661465
44	0xba739afe	-0.000929281
45	0x3c5b467e	0.013383506
46	0x3c131a41	0.008978427
47	0x3cb4b470	0.022058696
48	0x3d2c019a	0.041993715
49	0x3c38a762	0.011270376
50	0x37fc677f	3.0088935e-05
51	0x3ab42c0f	0.0013746041
52	0x3aecc45e	0.0018063893
53	0x3abb0b55	0.0014270345
54	0x3b0379c2	0.0020061587
55	0x3aebb780	0.0017983764
56	0xbb6f3f6b	-0.0036506306
57	0x3ad14c23	0.0015968125
58	0x3b3b0f35	0.0028543
59	0x3dc5e4fd	0.09662817
60	0x3c2b95ed	0.010472757
61	0xbb44da56	-0.0030037365
62	0xbd442238	-0.047884196
63	0x3d4f7ecf	0.050658043
64	0xbc0bf14d	-0.008541417
65	0xbacf5d99	-0.0015820741
66	0x3a7765c4	0.00094374665
67	0x3d1f1205	0.038835544
68	0xba199821	-0.0005859156
69	0x3c2d354b	0.010571788
70	0xb9cabeb2	-0.00038670521
71	0x3b950ffe	0.0045490256
72	0x3c8395bf	0.016062615
73	0xbd40ca51	-0.047067944
74	0x3c518a21	0.01278928
75	0xb91dae68	-0.00015037658
76	0x3c0ce68a	0.008599887
77	0xb986b7bf	-0.00025695373
78	0x3ca76814	0.02043537
79	0x3c918801	0.017765047
80	0xbb5e60a5	-0.0033932116
81	0x3b86d6b8	0.004114952
82	0xbc83a49d	-0.016069705
83	0xbcfa0c41	-0.030523421
84	0xbcd99c89	-0.0265639
85	0xbc89855a	-0.01678722
86	0xbc90afda	-0.017661978
87	0xbd89fb47	-0.067373805
88	0xbbed9b5a	-0.0072511854
89	0x3c2d07f7	0.010560981
90	0x3c83dbd4	0.016096033
91	0xbaf502b8	-0.0018692827
92	0x3bc4bcad	0.006003937
93	0x3d8dba59	0.069203086
94	0xbbae0725	-0.0053109103
95	0x3d20ae31	0.039228622
96	0xbb59c5d2	-0.0033229482
97	0x3d289add	0.041163314
98	0x39eef602	0.00045578188
99	0xbc7a6d9a	-0.01528492
100	0xbd16767e	-0.036734097
101	0x3da61fc7	0.0811153
102	0xb86e8897	-5.687083e-05
103	0x3cad106d	0.021125996
104	0x3ad6f197	0.0016398904
105	0x3cf13325	0.029443333
106	0x3c873de5	0.016509006
107	0x3b212fda	0.0024595172
108	0x3cd42739	0.02589761
109	0xbb3f3920	-0.0029178336
110	0x3db9ff8e	0.09081946
111	0x3d66704d	0.056259442
112	0x3ca36788	0.019946828
113	0xbcfcdca3	-0.030866927
114	0xbb84cf5c	-0.0040530395
115	0x3cb9a529	0.022661762
116	0x3b7c1385	0.0038463783
117	0x3b8602b5	0.004089678
118	0x3a1fd456	0.0006097009
119	0xbb219400	-0.0024654865
120	0x3c6b0939	0.014345461
121	0x3d93c3b4	0.07215062
122	0xbc564f57	-0.0130804395
123	0x3c6c3c95	0.014418741
124	0x3c08d086	0.008350497
125	0xbb0d4a71	-0.0021559263
126	0x3d5acf4b	0.053420346
127	0xb94b2b3c	-0.00019375695
128	0xbbef1bbc	-0.0072970074
129	0x3e373089	0.17889608
130	0xbd997d15	-0.07494561
131	0x3bbf8fc9	0.005845998
132	0xbb84bbf7	-0.0040507275
133	0xbed33b98	-0.41256404
134	0x3b284f88	0.002568217
135	0xbd24cdac	-0.040235206
136	0xbccde179	-0.025131928
137	0x3e7533a5	0.23945482
138	0xbca31f05	-0.019912252
139	0x3d9f4a59	0.077778526
140	0xbda0b646	-0.07847266
141	0xbd839dca	-0.0642658
142	0x3e7820f3	0.24231319
143	0xbac5250a	-0.0015040946
144	0x3c82dc51	0.015974196
145	0xbd44e1f9	-0.048067067
146	0xbc1ea96c	-0.009683948
147	0x3d446ec9	0.047957215
148	0x3c224c7e	0.0099059325
149	0x3c0d07da	0.008607829
150	0x3e5fb7fa	0.21847525
151	0xbe2eed58	-0.17082727
152	0x3c7181a3	0.01474038
153	0x3da92e20	0.08260751
154	0xbce71bf1	-0.028211566
155	0x3d983345	0.07431654
156	0xbd4299e0	-0.047510028
157	0x3cde533d	0.0271393
158	0x3f1b1190	0.60573673
159	0x3d4f7375	0.050647218
160	0xbd923606	-0.071392104
161	0xbda583a3	-0.08081748
162	0xbd943887	-0.07237344
163	0xbec6ee81	-0.3885384
164	0x3e0aee86	0.13567552
165	0xbc6b4287	-0.014359123
166	0x3cc26118	0.023727939
167	0x3e37f8e8	0.17966044
168	0xbdccadc0	-0.09994078
169	0x3c903ef0	0.017608136
170	0xbddecaa9	-0.10878498
171	0x3f19cd36	0.6007875
172	0xbd899bfa	-0.06719203
173	0x3e6e173e	0.23251054
174	0xbd00c9f4	-0.031442598
175	0xbe179bc6	-0.14805517
176	0x3cf85209	0.030312555
177	0xbc99f844	-0.01879514
178	0x3ea5de98	0.32396388
179	0x3dad0936	0.084490225
180	0x3cd01b8d	0.025403762
181	0xbee1436d	-0.43996754
182	0xbc46bfe2	-0.012130709
183	0xbee87822	-0.45404154
184	0x3dc8f8a1	0.09813047
185	0xbd6d8d3d	-0.057996023
186	0xbd5b7153	-0.05357487
187	0xbe929416	-0.28628606
188	0xbeb7ba82	-0.35884482
189	0xbd3d41ab	-0.046205204
190	0x3ccb7e05	0.024840364
191	0xbd4e37b8	-0.050346106
192	0xbc9dcd2a	-0.019262869
193	0x3f157019	0.5837417
194	0xbe466804	-0.19375616
195	0xbf0cad2c	-0.5495174
196	0x3dc3f4ec	0.095681995
197	0x3da6ca80	0.081440926
198	0xbe164173	-0.14673404
199	0xbd069726	-0.03285899
200	0xbd36149b	-0.044453245
201	0xbca9bdb0	-0.020720333
202	0xbc7272a8	-0.014797844
203	0xbe40dc5b	-0.18834059
204	0xbbc7b995	-0.006095121
205	0x3e8ac9c5	0.27107063
206	0xbc2b61e8	-0.010460354
207	0x3e4c63a6	0.19959888
208	0xbfa9a511	-1.3253499
209	0x3e4b3d63	0.19847636
210	0x3db64ab7	0.089009695
211	0x3ceb14bc	0.02869641
212	0xbdc2e43e	-0.0951619
213	0x3d662994	0.056191996
214	0xbf0e95a6	-0.55697095
215	0xbd17a912	-0.037026472
216	0xbd4a0673	-0.049322557
217	0xbe5e9b58	-0.21738946
218	0x3d000d0f	0.031262454
219	0xbfa6c440	-1.3028641
220	0xbe8caca8	-0.27475476
221	0xbd22b87d	-0.039726723
222	0x3e791699	0.24325027
223	0x3d151b11	0.036402766
224	0xbd8d0de8	-0.06887418
225	0x3cff9d08	0.031202808
226	0x3e8979e6	0.26850814
227	0x3daecc7f	0.08535098
228	0x3dbf316d	0.09335599
229	0xbded7ae4	-0.11595705
230	0xbdce9195	-0.10086361
231	0xbd391cc6	-0.045193456
232	0xbec64dc5	-0.38731208
233	0xbd9a1bad	-0.0752481
234	0xbe3972c6	-0.18110189
235	0xbf8213e8	-1.0162325
236	0x3f7e2088	0.9926839
237	0xbd79aade	-0.060953967
238	0x3c88bfd7	0.016693039
239	0xbd8d09a0	-0.068866014
240	0xbc8dbd9f	-0.017302332
241	0xbe0afc03	-0.13572697
242	0x3e95fe82	0.29295737
243	0x3bfb57ad	0.007670364
244	0x3ebddca4	0.37082398
245	0x3d276b7f	0.040874
246	0x3e85e194	0.26148665
247	0xbe55726f	-0.20844434
248	0x3aa2e7c0	0.0012428686
249	0x3d84648a	0.06464489
250	0x3d83a742	0.06428386
251	0xbe617a7a	-0.22019377
252	0x3c94cb00	0.018163204
253	0xbbfecf2f	-0.007776163
254	0xbc18c129	-0.009323397
255	0x3e9ed8ef	0.31024882

net.4.bias f4 [3]
0	0xc000058f	-2.0003393
1	0xbc6625cd	-0.014047098
2	0xbcc1d124	-0.023659296
