DQN_1v1_env/dqn_match.pt (torch, 76444 bytes, 6 tensors)

net.0.weight f4 [128, 11]
00000000: cb0c 17bf 1901 983d 30b9 acbd a6e3 463e
00000010: 5aeb adbd 1ba4 22bf 8a4e aebe 873a a6be
00000020: 3b97 10be 5ba6 68be 50bc 9ebc 86b8 053e
00000030: ef45 bfbd 240d 473e aaca f33d 3480 6b3e
00000040: 8468 92be ad91 86be 3aed 9bbe 3b88 c03d
00000050: 99b0 ea3d 00e8 19be f9ae 4e3e 00fe 2e3e
00000060: eba3 87be 7377 823e 0bb1 5b3e b201 913e
00000070: 0cd1 323e 8138 173e c5ae 8abe 91c7 f0bd
00000080: 650f 4cbe 68b4 0f3e 6cbf 023e a00d debe
00000090: 3cdb 733e 723e 383e 283e c13e 742a 023e
000000a0: 3909 43bd 38e5 073d 906d 133d d0e3 163d
000000b0: d57d 93be 1e20 a7bd ebbe d93e cd2d 81be
000000c0: 0cb2 d43d 0cc5 b83e 01fc 303d 7f7d 063e
000000d0: 8401 143e 766f 40be 5d4a 0bbd fc86 b53d
000000e0: 21fd 3f3e 10fc aa3c c789 a5bd e4ff 8e3e
000000f0: 244e 603e 9cd8 3a3e ce19 673d 18c0 16bc
00000100: 5896 40bd bbf0 32bd 7433 cbbb 130a 6fbe
00000110: e618 70bd 9ce0 3ebe 5f7a 2e3e ee99 793e
00000120: e15d 61be ea7e ce3d fee1 593e 3907 a23d
00000130: adab 2dbe 31d6 d4be 50a7 41be da5b fc3d
00000140: 9946 2abe 919b 623e 6878 55be cc2a 50bf
00000150: ba57 98bd 67bb 28bb 4d0d 1d3e b845 cdbd
00000160: 14b5 113c 1c6a 57bf 9047 a93e 3c26 cc3e
00000170: 59a6 5e3e 5970 833e c0a3 473d 3e67 ecbc
00000180: 1fd0 bf3d 6c90 cec0 d79b 933c d1b1 2fbf
00000190: aee2 533f 38dc a23f 576b 23bf 6c74 28be
000001a0: c393 51bf 2982 2cbf b862 adbd a286 81be
000001b0: ee6d a4be 8037 473c 2abb d3bd e7af 473e
000001c0: 920f 54bd 72a4 173e c102 113e a544 96bd
000001d0: 96cb 27be b17a 46bd c398 6d3e 411f 8cbe
000001e0: 842e 8cbe 6591 dbbe bd6f 0440 6483 0540
000001f0: d0e7 d9bf 706b f13d ac0e 50bf b405 80be
00000200: 566c e23e 56d3 19bf d49d 91bf bec3 6cbc
00000210: c6ad 57bf 8923 0a40 4842 d83f e714 06c0
00000220: a760 a13d b596 5abf 7b1a 73be 96b7 003e
00000230: 7b46 58bf a6e9 19bf 6f0d c53b b93e 3a3e
00000240: 3b02 393d 41fe 67be 9d4e 753e 138a 303e
00000250: 6750 6fbe 1fc9 c63d f89f 99be 7832 97be
00000260: 68c9 ffbd 2ed2 8abd df9a c2bd 1eb5 10bf
00000270: 5231 3fbf a5a2 843f a6e9 bdbd 395e 733f
00000280: 6c82 dc3e 9007 273f 0640 c43e 947b 83bc
00000290: 2872 9fbc 40f8 143e cab4 07be 87c8 4a3d
000002a0: a60b 6f3d 4195 d5bd a215 863d 042c 4f3e
000002b0: fb6d 54bd ffb8 943e 8e04 febd 39e5 0ebe
000002c0: b2b6 a5be 4a8f c6be 953e 16be f588 bcbe
000002d0: 22fa 5cbe 4e04 acbe 7ccc 91bd 1dcd 583d
000002e0: c3c0 bbbe 988e f6bc 32b1 313b 6225 12be
000002f0: 4990 923e 5823 f43d 7804 523e fbb8 87bd
00000300: 30f5 cabd bd48 643c 8229 29be 83dc e13d
00000310: 2f2b d73c 5b19 6fbe f74e 5a3e 3a96 663e
00000320: 0546 a6be 8d5f 3bbf f538 44bd 21a5 17bf
00000330: b8f1 953d d30a 4abe 0a72 a1be c033 253e
00000340: 36f5 69be 1c9e d3be 1782 babe b416 863e
00000350: 65d2 3c3e 798b ae3d 3e8c 3f3e b83c 3bbe
00000360: 0359 92be 2575 003f 5c7b de3d d98c 06be
00000370: b383 c8be b3b8 1a3e 5fd8 0ebf d095 9cbd
00000380: 1eab 94be a2c8 fd3e 0f70 32be fec4 623d
00000390: c86e bebd 04f4 f23d ce6f 3fbe 9563 133e
000003a0: 9ec2 d03e e756 b2be 67f8 ac3c e0d2 afbd
000003b0: bf96 323f 8ab8 ba3e 8ddd a33e 694f 6cbd
000003c0: d8d0 a33e dfa0 803e 3885 e1be bd3c 12bf
000003d0: bf74 3dbf 9f60 053f c73e 41bb 8ad8 c13e
000003e0: 5cdc 803e a57a f9bd 685b e33d 8b6d ba3d
000003f0: 0981 49be a292 983e ac38 88bd bc28 4e3e
-0.59003896 0.07422084 -0.08433759 0.19422778 -0.084921554 -0.63531655 -0.34044296 -0.32466528
-0.1412019 -0.2271971 -0.019376904 0.13058671 -0.09339511 0.19438607 0.119038895 0.22998124
-0.28595364 -0.26283017 -0.30454427 0.09400984 0.114594646 -0.15029907 0.20183934 0.17089081
-0.26492247 0.25481758 0.21454255 0.28321606 0.17462558 0.14767648 -0.27086464 -0.11756814
-0.19927748 0.14033663 0.12768334 -0.4336977 0.238141 0.17992571 0.37742734 0.12711507
-0.047616217 0.033177584 0.03599316 0.036838353 -0.2880694 -0.08160423 0.4252847 -0.25230256
0.10385522 0.36087835 0.04320908 0.1313381 0.14453703 -0.18792519 -0.034006465 0.08863637
0.18748905 0.020872146 -0.080829196 0.27929604 0.21904808 0.18246692 0.056421094 -0.009201072
-0.04701838 -0.04368661 -0.006201202 -0.23343687 -0.058617495 -0.18640369 0.17038868 0.24375126
-0.22008468 0.10082801 0.21277615 0.07911534 -0.1696002 -0.41569665 -0.18911481 0.12322207
-0.16628493 0.22129656 -0.20846713 -0.813153 -0.074386075 -0.0025746466 0.15337105 -0.100230634
0.00889327 -0.84146285 0.3306241 0.3987292 0.21743144 0.25671652 0.04874015 -0.028857823
0.09365868 -6.4551296 0.018018646 -0.686307 0.8276776 1.2723455 -0.6383566 -0.16450661
-0.8186609 -0.6738611 -0.08466095 -0.2529803 -0.3211512 0.012159228 -0.10338433 0.19500695
-0.05177266 0.14808825 0.14161207 -0.07337312 -0.16386256 -0.04845685 0.23202805 -0.27367595
-0.2737924 -0.42884365 2.06932 2.0861444 -1.7023869 0.1178807 -0.8127239 -0.2500435
0.4422328 -0.600881 -1.137629 -0.014450965 -0.8424953 2.158419 1.6895227 -2.0950258
0.07879763 -0.8538621 -0.2374057 0.12570032 -0.84482545 -0.60122144 0.0060135643 0.1818799
0.045168143 -0.22655584 0.2395577 0.17240171 -0.23370515 0.097063296 -0.3000486 -0.29530692
-0.12489587 -0.0677837 -0.095021956 -0.5652636 -0.7468463 1.0362135 -0.092730805 0.9506565
0.43068254 0.65245914 0.38330096 -0.016050138 -0.019463614 0.14547825 -0.1325256 0.049507644
0.05836072 -0.104288585 0.06547095 0.20231634 -0.051862698 0.2904739 -0.124032125 -0.13954629
-0.32365948 -0.38781196 -0.1467231 -0.3682324 -0.21579793 -0.33597034 -0.071190804 0.052929986
-0.36670503 -0.03009729 0.0027113673 -0.14272073 0.28625706 0.11920804 0.20509517 -0.06627079
-0.09910047 0.013933358 -0.1651974 0.110283874 0.026265709 -0.23349516 0.21319185 0.22518244
-0.32475296 -0.73192674 -0.04790588 -0.5923634 0.07321495 -0.19730692 -0.31532317 0.16133022
-0.22847447 -0.41331565 -0.36427376 0.26189196 0.18439634 0.08522696 0.18705842 -0.18284881
-0.28583536 0.5017875 0.10863373 -0.13139667 -0.3916298 0.1510952 -0.55798906 -0.07645762
-0.29036802 0.49567133 -0.1742556 0.055363648 -0.092984736 0.118629485 -0.18694994 0.14393456
0.4077348 -0.34831926 0.021114541 -0.08585143 0.6976127 0.36468917 0.32004967 -0.05769292
0.31995273 0.25122735 -0.4404695 -0.5712393 -0.74006265 0.5210056 -0.002948688 0.3786052
0.2516812 -0.12181596 0.11101419 0.09102925 -0.1967813 0.29799372 -0.06651434 0.20132726

net.0.bias f4 [128]
00000000: 2633 06bf 1a0d 5fbd cb66 3d3d 4a4b c4be
00000010: 5162 c8be 6302 033d b5de 73be a011 90be
00000020: 9e01 4dbe bc7f 83be b879 3fbe dce1 f8bd
00000030: 2462 36be 8ea8 993e ee5f 0ebe 0304 dabd
00000040: 02e2 99be 213a 293d e437 113e 4c49 4bbe
00000050: c7a8 6fbe a341 bbbc 22ce 023d 0d06 193d
00000060: 7bac 33be 079b 86be 75da 44be 218f 07bc
00000070: 4250 91be 8c3f 7abc ec7e 8bbe 03f2 b2be
00000080: aeb3 63be 6836 2b3e bdce 69be 71d5 22be
00000090: c7dc 7a3e b550 f5bd 31b6 87be 5723 dcbe
000000a0: 12fa 8ebe c7c3 4dbe 8b12 a13b 54ef 14be
000000b0: 8598 40be e907 4fbe 1609 a5be 96f1 5b3e
000000c0: 23a2 a0be 337e a0bc ac8b 5ebc e8d1 5bbc
000000d0: e556 ddbd 63bb 5bbe 1d3b dbbe cf05 373d
000000e0: b3cc 31be 8eac 8b3e 5e64 c5bc da3a 653d
000000f0: af76 dfbe 6693 7f3e 3866 2c3d ccdf 8a3e
00000100: 8fc9 4bbe 305e b2be 9ff9 063e a404 043e
00000110: 9234 f63d 1184 4dbe 11d5 79be 1139 08bd
00000120: 5a7e 98be 4ba5 0abe dbcc 693e 64d0 8dbd
00000130: cf3d 2a3c 4dfe 423e 5fbb 6e3d 9ba7 ddbd
00000140: fd83 a33d 8ca3 94be aec8 efbb 68c8 0a3b
00000150: 1340 3b3d 0a28 1abe aa01 4f3e 7578 e63d
00000160: 9dd6 84bd 4c46 953e a82e 84be 36c8 ecbd
00000170: 2101 ddbe dca6 183e 54e4 b5be f5c7 873e
00000180: dc95 96bd 277e 253d 46c8 383b 3521 b63d
00000190: 2a87 323e 9666 95be 047e 9ebe 3bcd fc3d
000001a0: 72ad 01be 1a4e 7cbe cd0a 0cbe 9729 efbd
000001b0: bea0 303e 5653 7dbb ff6f 7ebd 0c8f 05bd
000001c0: 08a9 843e 3287 57bd 4b23 38be c9d5 eb3d
000001d0: 164b bd3d 417c 2e3e f49e abbc 9dc7 77be
000001e0: cbd2 9fbe a18b 953d bd65 823e 55c6 3e3e
000001f0: 97e8 23be c211 29bc c100 76bd 9be1 91be
-0.52421796 -0.054455854 0.04624061 -0.3833869 -0.3913751 0.031984698 -0.23815425 -0.28138447
-0.20020148 -0.2568339 -0.18698776 -0.12152454 -0.17810875 0.3001141 -0.13903782 -0.106452964
-0.30055243 0.0413152 0.14181477 -0.1985218 -0.23404227 -0.022858446 0.031934865 0.037359286
-0.17546265 -0.2629015 -0.1922396 -0.008273871 -0.28381544 -0.01527394 -0.2724527 -0.34950265
-0.22236511 0.16719973 -0.2283277 -0.15901734 0.24498282 -0.11978284 -0.2650619 -0.42995712
-0.27925164 -0.20094214 0.0049155406 -0.14544421 -0.18808182 -0.20217861 -0.32233495 0.21478876
-0.313737 -0.019591426 -0.013583105 -0.013416745 -0.108075894 -0.21458201 -0.42818537 0.044683274
-0.17363243 0.27280086 -0.02409571 0.05596433 -0.43645236 0.24958572 0.04208967 0.27123868
-0.19901107 -0.34837484 0.1318116 0.12892395 0.12021746 -0.2006991 -0.24397685 -0.033257548
-0.297839 -0.13539617 0.22832052 -0.06924513 0.010390713 0.1904232 0.05828416 -0.10822984
0.07984159 -0.29031026 -0.007317624 0.002117658 0.045715403 -0.15054336 0.20215479 0.11253444
-0.06486247 0.29155195 -0.25816846 -0.11561625 -0.43164924 0.14907402 -0.35525763 0.26519743
-0.07352802 0.04040351 0.0028195544 0.088930525 0.17434373 -0.2917983 -0.30955517 0.12343832
-0.1266382 -0.24639168 -0.13675995 -0.116778545 0.17248818 -0.0038654408 -0.062118527 -0.032607123
0.2591021 -0.052619167 -0.17982213 0.11515386 0.09242837 0.17039587 -0.020949818 -0.2419724
-0.3121551 0.07302023 0.25468245 0.18630345 -0.16006695 -0.010319175 -0.060059313 -0.28492436

net.2.weight f4 [128, 128]
00000000: 6ffc 65bd 9ba5 213d 27dd 4dbc 569a bdbd
00000010: d388 00be 2b5d 623d 4d9e 3a3c 36fa e1bd
00000020: 080f 673d 4054 2abd 4760 b2bd fe67 7ebd
00000030: 898b 84bc cd4d afbd eeb6 95bb 79e2 a4bb
00000040: ce3c 49bd 03ab 963d 93c5 43bd bf85 8bbd
00000050: 8dbc 413d 2a3d 063d 08e5 cb3d d6fb ad3d
00000060: 54a7 3c3c cdf7 da3c 4b3e a5bb 86b7 00bd
00000070: 1af8 c9bd d316 e9bd b0d7 6ebd 7935 9fbd
00000080: 31c9 123d d854 553c 9eb0 f73c 2130 e7ba
00000090: b915 ce3c 70ad aa3d ddc2 2cbc 5ee9 34bd
000000a0: 7f8f a2bd 088d 403d a49b 18bc 9cd0 bebc
000000b0: 2109 933c ff6e 973d 0860 113d e1b9 2b3d
000000c0: e8aa 883d 5770 b33d ec34 453d af88 bfbd
000000d0: 3c58 15bd 86f6 68bc 9f48 9fbd 2fae edbb
000000e0: 4143 1bbd c1a5 ecbd b563 d53b 65fd a3bd
000000f0: 74a1 b4bc b5fa 1fbd 8376 aa3d 33fe 32bd
00000100: 9254 973b be8f cc3d 58dc ac3b 0c28 60bd
00000110: eb93 5e3d 5414 99bd f9f0 193d abf2 aabd
00000120: f814 d8bc fbd7 433d 94b8 82bc c725 7abb
00000130: 5c44 413d 8db9 4e3d 1410 e9bb 5a6a 5d3d
00000140: 24ed 5e3d eece 803d 2136 fd3c f362 8bbd
00000150: 1961 193c f34f 783d a29d 49bd 0247 503c
00000160: b747 92ba 1337 013c 469c 53bd ed94 e8bb
00000170: 6e03 123d 1718 6fbc b856 cfbd 0797 25bd
00000180: 99ba f3bc fda4 983d 794f a13d f47b 8ebd
00000190: 6282 edbb 5c55 6abd 3196 03be 3c4b 413d
000001a0: 650a eebc 04a9 053b 3f9b bb3c 190d 6fbd
000001b0: 20b6 aabd 87ed 00be d769 0f3d b924 03bd
000001c0: 0922 773c e324 8abd 7ae2 99bd 5fbe b3bd
000001d0: ccf3 e33d ff6b 83bd e5b2 863d fc8a a53d
000001e0: c1b8 e03d 4324 f83b 9e15 9f3d bc4d 3e3d
000001f0: ffa4 463d 5a89 293d 0a3e 123c 19fd b9bc
00000200: cbcd c2bd bf4b eabc f3a2 9fbc a7a6 6cbd
00000210: 0183 c8bd a56b 183d 1a13 f2bc 3aef fcba
00000220: 5aa5 503d 47b2 e3bd efc5 b1bd 674c 2a3c
00000230: 064c a5bb cf2a 77bd 5cf7 513c b81f d93b
00000240: 2ddb bcbd bc53 c43a 3875 923d 9358 0b3d
00000250: adec 13bd 11c0 ddbb 974a 523d f5d5 6bbd
00000260: f2b0 46ba 681c aabc 6e28 de3a cd05 463c
00000270: d79a dcbd 2d0d 36bd 0e6f 64bd 3987 0a3d
00000280: dc08 463c 302d 533d 0cf5 1b3d 8fcd 0b3d
00000290: 6a4a a8bd 49af 5dbd 686f 2cbd d95d 11bd
000002a0: f63d 0abe 5ebc d03c ddb1 973d a62e 05be
000002b0: 5142 aa3d 978a 033c d018 c3bd 3a63 6e3d
000002c0: 5f96 ac3c 0eca 483d 9576 2a3c e26e bf3c
000002d0: d21c 1b3c 10c0 4cbc 53fd 643d c015 8e3b
000002e0: a7d2 47bd c973 613c 32b3 debc 3006 c6bc
000002f0: 272e 743c 7e56 17bd c513 90bd a6fd 99bd
00000300: f961 d2bd bf9c a0bc c851 52bd af4b 413c
00000310: 0e47 bbbd 79e6 34bd ec8d edbc e8bf 973d
00000320: e925 0cbd 3697 0b3d 6f4b b63c e878 0abd
00000330: ee59 0cbd f650 bcbc 02c9 7c3d 22a6 f7bb
00000340: 2e12 0c3c a3d5 583d dc53 86bd 21cd a6bd
00000350: 0452 02be 3377 a33c d781 163d 7308 183c
00000360: e8db 5f3b d685 213b 84eb 48bd 280b 943d
00000370: e9c4 fd3c 965e b3bc 8b86 67bd fd31 8ebd
00000380: f036 c8bd bdac 1a3d 925b 513d c62e 253d
00000390: d09a e73b f022 90bd 5cba 22bc 09a0 c1bd
000003a0: 66a8 6ebd 9204 34bd 6cf0 a13d 7348 5ebd
000003b0: e8c1 8f3d 7ef4 1fbe 0365 f9bd d687 003d
000003c0: 5746 a73d 8bfe 89bd c7e9 6abc a3f0 22bd
000003d0: 77d4 8bbd d891 093d bb38 2fbd 1cfc 41bd
000003e0: 95b5 893d af96 1d3d c35f a13c 102c 4cbd
000003f0: 7b91 a4bd 58fa 4abc 4d4c cebc 118f 82bd
-0.056148943 0.039464574 -0.012564934 -0.09257953 -0.12552194 0.055264633 0.011390281 -0.11034052
0.05641082 -0.041584253 -0.0870977 -0.062110893 -0.016179817 -0.08559761 -0.004568926 -0.0050318805
-0.049130253 0.07356837 -0.047795843 -0.068126194 0.047298957 0.032773174 0.099557936 0.084952995
0.0115145035 0.026729489 -0.0050428263 -0.03142502 -0.09861775 -0.113813065 -0.058311164 -0.07773871
0.035836402 0.013020717 0.030235585 -0.0017638245 0.025156843 0.08333862 -0.010544506 -0.04416787
-0.07937526 0.047009498 -0.009314451 -0.023292832 0.017948689 0.07394218 0.035491973 0.041925315
0.06673223 0.087616615 0.048146173 -0.09352242 -0.0364611 -0.014218932 -0.07777523 -0.0072534303
-0.037905935 -0.115550525 0.00651213 -0.080073155 -0.022049643 -0.039057452 0.083233856 -0.043699455
0.004618236 0.09988354 0.0052752905 -0.05472569 0.054340284 -0.074745804 0.037583325 -0.083470665
-0.026377186 0.047813397 -0.015957154 -0.003816949 0.047184333 0.050469924 -0.0071125124 0.054056503
0.054425374 0.06289469 0.0309096 -0.068059824 0.009361529 0.06062312 -0.049222596 0.012712242
-0.0011160289 0.007886666 -0.051662706 -0.0070978315 0.035647802 -0.014593146 -0.10123962 -0.040427234
-0.029752063 0.07453344 0.07876486 -0.06957236 -0.007248209 -0.05721031 -0.12850262 0.04719089
-0.02905769 0.002039493 0.022901176 -0.0583621 -0.08335519 -0.1259061 0.035013046 -0.032017443
0.015083798 -0.06745317 -0.075139 -0.08776545 0.11130485 -0.06417083 0.0657709 0.0808315
0.10972739 0.007572682 0.07767795 0.046460852 0.048497196 0.041390754 0.008925924 -0.022703694
-0.09511908 -0.028600572 -0.01948688 -0.05777612 -0.09790612 0.037212033 -0.029550124 -0.0019297369
0.05093894 -0.11117988 -0.08680331 0.010394192 -0.005044463 -0.06034356 0.012815323 0.0066260956
-0.09221492 0.0014978568 0.07151264 0.034020018 -0.036114383 -0.006767281 0.051340666 -0.057577092
-0.00075794675 -0.020765498 0.0016949305 0.012086344 -0.10771721 -0.04444616 -0.055769973 0.033820365
0.012087073 0.051556766 0.03807549 0.034131583 -0.08217318 -0.054122243 -0.042098433 -0.03548989
-0.13500199 0.025480445 0.074069716 -0.13006076 0.0831343 0.008028648 -0.09526217 0.0582001
0.021067796 0.04902082 0.010404249 0.023368303 0.0094673205 -0.012496963 0.05590565 0.004336089
-0.048784878 0.0137605155 -0.027185056 -0.024172872 0.014903582 -0.03694772 -0.07035021 -0.07519083
-0.10272593 -0.019605992 -0.051347524 0.0117978295 -0.09144412 -0.04416511 -0.028998338 0.0740965
-0.03421584 0.034079753 0.022252766 -0.03380671 -0.03426545 -0.022987824 0.061715133 -0.0075576464
0.008549256 0.052938115 -0.06558964 -0.08144594 -0.12726599 0.0199543 0.03674492 0.009279358
0.0034158174 0.0024646423 -0.04905273 0.072286904 0.030977683 -0.021895688 -0.056524795 -0.06943128
-0.097761035 0.037762392 0.05111272 0.04032781 0.0070680156 -0.07037914 -0.009932127 -0.094543524
-0.058266066 -0.04394967 0.07907185 -0.05426831 0.070194066 -0.1562061 -0.121774696 0.031379543
0.08167713 -0.06738003 -0.014337963 -0.03978027 -0.06827634 0.033586353 -0.04277871 -0.04735957
0.06724087 0.03847378 0.019698983 -0.04984671 -0.08035561 -0.012388788 -0.025182867 -0.06374944

net.2.bias f4 [128]
00000000: be19 d1bd 645c 023c ea02 19be 8744 c5bc
00000010: 34c5 043a 8aff 8ebc f43b b93e 4ff5 b83e
00000020: dfe7 c3bd 0ef8 e43c 0336 8ebd 4bdf c7bd
00000030: fcc6 82bc 83ce 0cbd 43bd 42bd da0e 9e3b
00000040: 2ebc 5ebd 5b7b 5dbb 405a 2abe 3710 a8bd
00000050: 33ff 563c 1e67 6cbd dab4 01bd 7d99 223c
00000060: 0c22 373e a166 efbd 8348 0d3c 449b 29bd
00000070: f231 d6bb fc60 10ba 0873 713b b181 45be
00000080: 34a9 dcbd b746 9b3a b517 ef3b 47f5 313d
00000090: 693b 10be 37fc 25ba d428 b2bb c786 5c3c
000000a0: b0bb e73c c0ac dcba fb73 d1bd 3e5c 69bd
000000b0: 295b 87bd 8067 bcbc b50a 1abd 5443 71bd
000000c0: 83f5 6b3c 247e d4bd 475c debd 958e 363e
000000d0: a973 febb 9757 0b3d 15eb 8b3c d94f 77bd
000000e0: 4e1f 1d3d 5371 9e3d b2c2 c8bd bd30 103d
000000f0: 8c8d adbc 9bfe 60bd bf8f d5bd 7d2c b7bd
00000100: b00b 3cbd 5c3a b4bd ad0f efbd 521f 5bbd
00000110: 9ebb e1bd 74ee 873d 4278 e7bd ea94 a0bd
00000120: 42d8 0abe 654d 9fbd aaed 653d 6b8f 573d
00000130: 130f a9bd b720 a3bd d8d7 febd 35d7 f8bd
00000140: fce4 e7bc b181 4e3d fec8 7c3e ed38 1bbe
00000150: aca2 163d 9b66 553a 0826 ac3c efb5 af3c
00000160: b33b b2bd cc7b 9abb 193e 1d3d 0d39 a0bd
00000170: 3b4e a9bd 45a3 4f3d ad73 c4bd b46f 2d3d
00000180: 4d9b 88bd 61f9 5c3c 615a e4bd 0f40 6e3c
00000190: b447 00be f82e 4ebd dc3e c13c 9113 a2bc
000001a0: 73af 633d 72f7 31bd d6b6 583d 8c3d eabb
000001b0: 65ac d63a 195a 94ba 3a4d adbc 53b5 30bd
000001c0: c288 393c 19bd 79bd 2bd5 f0bc 3664 aabb
000001d0: c3c7 c3bd 5524 81bc 0cd0 babd e440 fcbd
000001e0: 95b7 6cbd a2fc 9ebd 7336 82bd 16da ebbd
000001f0: 7805 1d3c 9823 59bd b5b7 bdbd 6fae bcbd
-0.10209988 0.007956598 -0.14942518 -0.024080528 0.0005064786 -0.017455835 0.36178553 0.36124656
-0.0956571 0.027950313 -0.06943896 -0.09759387 -0.015964024 -0.034376632 -0.047543775 0.004823548
-0.05437868 -0.003379545 -0.1663599 -0.08206218 0.013122368 -0.057715528 -0.031666614 0.00992429
0.17884082 -0.11689497 0.008623245 -0.04140784 -0.0065367157 -0.0005507616 0.0036842246 -0.19287755
-0.107744604 0.0011846636 0.0072965273 0.043446805 -0.14085163 -0.00063318334 -0.005436996 0.013459868
0.028287739 -0.0016836151 -0.102272 -0.056972735 -0.06609184 -0.022998571 -0.037607867 -0.0589021
0.014401796 -0.10375622 -0.10857444 0.17827828 -0.0077652526 0.03401908 0.01707987 -0.060378883
0.038359933 0.07736459 -0.0980276 0.03520273 -0.021185659 -0.05493031 -0.10427808 -0.08944032
-0.045909584 -0.08800194 -0.11672912 -0.053496666 -0.11022113 0.06637278 -0.11302234 -0.07840903
-0.13559058 -0.07778434 0.056134857 0.05262701 -0.08254828 -0.07965224 -0.12443513 -0.121504225
-0.02830743 0.050416652 0.24686047 -0.15158434 0.03677623 0.00081405946 0.021014228 0.021449057
-0.08702793 -0.004714465 0.0383893 -0.078233816 -0.082668744 0.050692815 -0.09592376 0.042342857
-0.06670246 0.013487191 -0.11150051 0.01454164 -0.12527353 -0.05033776 0.023589544 -0.01978472
0.055587243 -0.043448873 0.05290874 -0.0071484502 0.0016378282 -0.0011318355 -0.021154989 -0.043141674
0.0113241095 -0.060971353 -0.029398521 -0.0051999344 -0.09559586 -0.015764395 -0.09121713 -0.123170644
-0.057792265 -0.0776303 -0.063580416 -0.11516206 0.009583823 -0.05301246 -0.09263555 -0.09212958

net.4.weight f4 [3, 128]
00000000: 25d5 f5bd dc85 ccbb dfb5 3d3d e524 2dbd
00000010: d492 3d3d 47aa 303d 3c3c 303f a13d 1f3d
00000020: c773 9b3c 39bc ef3a 8c45 ab3c 5420 ffbb
00000030: b6cc c43d 4188 973c 52ca aebb 74f4 1c3d
00000040: 0d76 413c 0212 f0bc cdb3 703d fc68 613b
00000050: 9906 d7bc beb2 07bd f6c2 983c 0179 a33c
00000060: b6c6 8cbd 5e40 23bc 4170 8e3f 0055 fabc
00000070: 148e cdbb 6ffc 81ba bfc4 49bd ceb5 903b
00000080: 3e49 853d 7d4f 3cbd 8e84 b83b ffd5 563c
00000090: 4b86 7c3c 0d10 c33b 1700 a33d 9a41 2c3d
000000a0: 90fe 7e3d b4d2 2f3d d5d5 8b3c 9253 a83d
000000b0: 4381 c6ba e46a 1c3c 12f0 583c 94c4 ea3c
000000c0: 1bfa 5ebd 020e 5d3d e968 833d db6a 1b3d
000000d0: d39d 233b aba0 75bd a7a1 3fbb 6fc8 e8bc
000000e0: 3f9c 2fbd a77a 97bd 9822 c53c 5507 07bd
000000f0: c1fd 64bc 714f 89bd 76d9 d23b a03c 61bd
00000100: 8757 a0bc 22d9 d23c 5cb4 8e3d e8cb 3a3d
00000110: 9f42 0a3e fb65 f93b 9e2a c2bc 8de6 2bbc
00000120: ac3e 553d bb9e 8c3c 8e3b 12bd e4aa aa3c
00000130: aac0 24bd fe87 abbc e70b 013c 83fc 9ebc
00000140: 7b68 423d a213 fd3c 725a 303d b568 2f3d
00000150: 1ce1 2bbd 601d 3d3d 3cfa e7bc 0684 103d
00000160: 24f3 8d3c c03c 57bc 20ee 7e3d c2d1 9d3c
00000170: d09d 873d 8053 3f3b 9743 423c 1ad0 3dbd
00000180: fb66 5a3b 76b7 8d3d 86e4 753a a9a6 59bd
00000190: 0d87 853c ab2b f23b 843b 133d 5c03 97bd
000001a0: f4e9 073c 65d8 0bbb 372c b23d 1a4f 5cbd
000001b0: fbe0 893c a1b7 ba3c 14ca 87bc 1576 73bd
000001c0: 6a08 2bbd 17b7 343b 66e8 6bbc d0eb 283b
000001d0: 8859 d33b 3401 523d e310 8bbd 7655 9b3b
000001e0: 4dac dd3c 6076 713c 6d5e 883d d739 13bc
000001f0: 2a9f 98bc b689 6f3b f28b 913c c294 b1bc
00000200: 4306 0e3d 4b93 bdbd 85fe 17bd 0e80 52bd
00000210: 4f03 b33c 2dff 44bd 5ed7 c13d 870d 5a3e
00000220: 35d1 31bd 25f2 ab3d bf11 653d 3722 663c
00000230: 8382 e13d 536c 9f3c 8952 1f3d 091c 873d
00000240: 18e7 49bd 420b 91bd 9a30 45bd ae3c 113d
00000250: fe09 9c3c b774 1e3d 93b6 94bd 8dce 403d
00000260: 0416 fe3d 0de7 a63b ec61 e53d 0fad 8f3d
00000270: d730 40bd 9932 0c3a 52b7 9bbd f7b6 863d
00000280: 9970 153d 40d6 44bd 162d d43c 338f 693d
00000290: 21a4 4dbc 518a e6bd 9b2f ffbc b528 d7bb
000002a0: 09b4 233d e689 c83c 592b 78bc 4204 b5bd
000002b0: 24e1 dcbc a0c0 b6bd bfa5 14bc 1708 453c
000002c0: ef4b c03c 2e28 5d3d 007d adbc efd2 44bc
000002d0: 2776 263d 7f7a 8bbd 6f8b 34bd 5dae d73c
000002e0: ec50 bd3c d96b 193c 6f6b 133d 1561 64bc
000002f0: be34 253b 4951 533c 1c58 b13a 1f3b 103b
00000300: 3d92 523d c7df 9f3d 646d 843b b05a c7bc
00000310: 139e f53c dbcd 623d a8f6 6b3d 1c58 453c
00000320: 0167 253d 3980 2d3d d65f 32bd 8387 723b
00000330: e269 8cbc 530d dbbc 7932 d0bc 4dec bb3d
00000340: d373 9c3c 5826 0f3d 13a6 183e dc03 85bc
00000350: 563e 76bc ab60 9dbb 6f7a 35bd 5197 53bd
00000360: b46b 82bb 430a 2d3c 10d6 4dbc 3ed3 9e3c
00000370: b979 93bc 4a90 d9bc 85d6 963c f776 a33c
00000380: 1027 4bbd 29ca b9bb 287a 1f3d 1a30 b23b
00000390: f035 54bd f662 d23d 5811 7bbd 52cd 1f3d
000003a0: cf9e 813d f213 dbbc 9941 5abd b5a4 a83a
000003b0: 2111 15bd 838f 28bd e747 8f3c a898 2fbd
000003c0: 7ede aabd e4b7 80bc 0088 7a3c 82ed f13d
000003d0: 0a03 f83c 3c95 b93c 75e5 7a3d 126c b1bc
000003e0: f989 833d 606d b13d b1df 77bc 493d 44bd
000003f0: 4aa6 cc3c 9a44 0dbd 31f1 603d 4dbd 713d
-0.12003545 -0.006241543 0.046316024 -0.042271513 0.046282604 0.04313114 0.6884191 0.038877133
0.018976105 0.0018290348 0.020907186 -0.0077858362 0.09609358 0.018497588 -0.005334177 0.038319066
0.011807931 -0.029305462 0.05876522 0.003439485 -0.026248263 -0.033129446 0.018647652 0.01995516
-0.068738386 -0.009964077 1.1128007 -0.03055811 -0.0062730405 -0.000991715 -0.049259897 0.004416204
0.065081105 -0.045974243 0.005631036 0.013112544 0.015412877 0.005952841 0.079590015 0.04205475
0.06225449 0.04292555 0.017069736 0.08219065 -0.0015144724 0.009546969 0.013240831 0.028658189
-0.054437738 0.053968437 0.064164944 0.037943702 0.0024965897 -0.059967678 -0.002924064 -0.028415887
-0.042873617 -0.07396441 0.024064347 -0.032965977 -0.013976515 -0.06704605 0.006434615 -0.054989457
-0.019572986 0.025738303 0.069679946 0.045604616 0.13501976 0.007611034 -0.023701962 -0.010491979
0.05206172 0.017165532 -0.035701327 0.02083344 -0.0402228 -0.02093887 0.007876373 -0.019407516
0.04746292 0.03089315 0.043055005 0.042824466 -0.041962728 0.046170592 -0.028317563 0.035282157
0.017327853 -0.0131370425 0.062238812 0.01926506 0.06621897 0.0029194057 0.011856935 -0.04634104
0.0033325541 0.06919758 0.0009380061 -0.053137455 0.016299749 0.0073904595 0.03594543 -0.073736876
0.008295525 -0.0021338698 0.086998396 -0.053786375 0.016830912 0.02279264 -0.01657585 -0.059438784
-0.04175607 0.002757495 -0.01439867 0.002577532 0.006449882 0.05127068 -0.0679033 0.0047404123
0.027059698 0.014737695 0.06658635 -0.008985958 -0.018630583 0.0036550588 0.017766926 -0.021677379
0.03467394 -0.092566095 -0.037107963 -0.051391654 0.021852164 -0.048094917 0.09464906 0.21294223
-0.043412406 0.08395795 0.055925127 0.014046243 0.11011221 0.019460833 0.03889707 0.06597144
-0.049292654 -0.070822254 -0.048142053 0.03545826 0.019047733 0.038685527 -0.07261386 0.047071982
0.12406543 0.0050934614 0.11200318 0.0701543 -0.046921577 0.0005348116 -0.07603325 0.065778665
0.036484335 -0.048055887 0.025900405 0.05702133 -0.012551338 -0.112568505 -0.03115063 -0.006566132
0.039966617 0.024479818 -0.015147054 -0.08838703 -0.026962824 -0.08923459 -0.00907272 0.012025855
0.023473708 0.053993396 -0.021177769 -0.012013181 0.040640023 -0.06810474 -0.044078287 0.02632826
0.023109876 0.009364092 0.03599113 -0.013939162 0.0025208439 0.012897798 0.0013530287 0.0022007895
0.051408995 0.07806354 0.0040413607 -0.024335235 0.029982602 0.0553721 0.057608277 0.012044933
0.040381435 0.04235861 -0.043548428 0.003700704 -0.017140333 -0.026739752 -0.025414692 0.0917593
0.019098198 0.034948677 0.14907102 -0.016237192 -0.0150295105 -0.0048027835 -0.044306215 -0.05165798
-0.0039801244 0.010561529 -0.0125632435 0.019387837 -0.018002378 -0.02655806 0.018412838 0.019954188
-0.0495978 -0.0056698513 0.038934857 0.005437863 -0.05180925 0.102727816 -0.061295837 0.039014168
0.063291185 -0.02674291 -0.053285215 0.0012866469 -0.03639329 -0.04115249 0.01749034 -0.042870194
-0.08343218 -0.015712686 0.015291214 0.11812879 0.030274887 0.022654168 0.061253984 -0.021657977
0.064228006 0.0866344 -0.015129016 -0.04791001 0.024981637 -0.03448925 0.054917518 0.059018422

net.4.bias f4 [3]
00000000: 8d30 3c3e 1e7e cf3e d293 203f
0.18377896 0.40525907 0.62725556
